ppo_cartpole.pth (torch, 22548 bytes, 6 tensors)

shared_net.0.weight f4 [64, 4]
-0.8871834 0.37636003 -0.35028636 -0.2757077 -1.3642246 0.2834084 -0.5300912 0.20911543
0.96786594 0.005092541 0.99326825 -0.14976946 0.45581087 0.99341756 1.0260494 -0.013073691
1.4330206 -0.44735995 -0.4959138 -0.06127695 1.1324458 0.5602536 -1.0472842 -0.41691524
0.7162023 0.8827806 2.566476 0.08183388 -0.7402185 -0.3121476 -2.371283 -0.33754626
0.7126326 0.26999766 2.5431755 0.9031606 -1.5541409 -0.9086818 0.6326373 0.34791008
-1.1948786 -1.4040383 -1.3553059 0.019539129 -0.09478523 0.8148502 0.822308 0.23044986
-0.54516536 -0.103940256 -2.4893568 -0.764002 -0.7955109 -0.19546878 -1.7510202 -0.2832654
-1.3764287 -0.16129169 -1.4477618 -0.3599808 -1.0762175 -1.1202053 -0.11089713 -0.17712943
0.85708725 1.4880806 0.81047827 0.47416022 0.8546071 0.39843273 1.4313561 0.061922
0.7744096 0.41475013 -1.1323687 -0.33445516 0.882298 0.40859583 2.6490524 0.26270488
-0.5008522 -0.79253316 0.28256238 -0.5033244 0.8515568 -0.51044303 -0.7142353 -0.12972756
-0.95377356 -1.2627435 -1.2631235 -0.20380728 -0.53038716 -0.58599406 1.1087856 0.19302075
0.0023986744 -0.049517017 -2.1569247 -0.78417575 -1.0702947 0.42059588 -1.4965569 -0.08483456
0.5542373 -0.12009486 1.896521 0.2748015 1.5460999 0.72346616 -1.1394274 -0.38318303
-0.83803123 0.09733813 -1.3179736 0.4004291 1.1687537 0.35495424 -1.526595 -0.5214905
0.32834426 -0.35485324 -2.358491 -0.55969197 -0.9750089 -0.09746034 1.5671735 0.26693335
-0.07990932 -0.7214184 0.56517553 -0.90519124 -0.25758564 -1.0093007 -1.2873853 -0.6997003
-0.37558794 -1.4822367 -0.04403779 -0.2888186 0.0791824 0.62859863 -0.16966121 0.20813966
0.8740108 0.892829 -0.33452195 0.15054008 1.0106759 -0.3482935 -1.2446607 -0.73728335
1.1118166 0.008433837 -1.6424403 -0.33400977 0.5042485 -0.23282741 -2.480289 -0.17725359
-0.61400664 0.06333397 2.1260815 0.58759165 0.97882587 1.1286324 0.5245984 0.68841404
0.6945351 0.32196042 1.4324892 0.4355742 0.87239075 0.3833208 -1.539939 -0.13133477
-0.73672575 -0.6725234 -1.6167548 -0.12506028 -0.57027054 0.14639741 -0.97795254 -0.0039099003
0.6679133 0.5908823 -0.01840371 0.11444652 0.8618203 0.36057454 2.6325564 -0.03898452
-0.37785077 -0.26292464 1.2483685 0.8051027 -1.6579772 -0.53342086 0.4865427 0.78304464
0.6127868 0.14682794 2.5298657 0.7114802 -1.1774769 0.2045925 2.4144442 0.43835148
0.8550864 0.88097554 2.3131943 -0.14985582 1.2351923 -0.12188321 -1.9443561 -0.19213521
-0.37228492 -0.22478834 -0.5856517 0.11350462 -0.8802886 -0.47181115 -2.6446881 0.009948919
0.5859443 0.14913006 2.5213914 0.4476623 0.91919786 0.51321995 1.8394566 -0.2315461
-0.83410764 -0.26009712 -2.2094166 -0.6630421 0.018190276 -0.20887585 -2.2643027 -0.51874846
-0.9222171 -0.53523946 0.78295356 0.088394836 0.9506746 0.11611457 -0.4692554 -0.28338847
-0.69932634 -0.50364655 -2.6509244 -0.078106634 -1.0828818 -0.9101211 0.762429 0.1638314
00000000: 741e 63bf 43b2 c03e bc58 b3be 8f29 8dbe
00000010: e99e aebf e81a 913e 0fb4 07bf 5b22 563e
00000020: 10c6 773f 55df a63b d446 7e3f 2a5d 19be
00000030: 0b60 e93e 9d50 7e3f 9655 833f 0933 56bc
00000040: 386d b73f 5d0c e5be 6ae8 fdbe 8afd 7abd
00000050: fcf3 903f c86c 0f3f 690d 86bf ea75 d5be
00000060: 0959 373f e9fd 613f 2541 2440 8598 a73d
00000070: f67e 3dbf cfd1 9fbe 1ac3 17c0 ddd2 acbe
00000080: 176f 363f 223d 8a3e 63c3 2240 8835 673f
00000090: 17ee c6bf 5f9f 68bf 85f4 213f 4521 b23e
000000a0: c8f1 98bf 87b7 b3bf aa7a adbf 8610 a03c
000000b0: c21e c2bd 069a 503f c782 523f 0cfb 6b3e
000000c0: f58f 0bbf a1de d4bd 9f51 1fc0 a395 43bf
000000d0: 9aa6 4bbf f828 48be 6e21 e0bf 2a08 91be
000000e0: d12e b0bf a629 25be 4250 b9bf 674f b8be
000000f0: 7fc1 89bf e362 8fbf 091e e3bd 6b61 35be
00000100: 126a 5b3f 6d79 be3f 817b 4f3f 21c5 f23e
00000110: 88c7 5a3f 60ff cb3e ad36 b73f eca1 7d3d
00000120: b53f 463f 215a d43e 75f1 90bf b53d abbe
00000130: 48de 613f 7933 d13e 138a 2940 4181 863e
00000140: da37 00bf 74e3 4abf 04ac 903e ded9 00bf
00000150: a0ff 593f 65ac 02bf 20d8 36bf 4dd7 04be
00000160: 812a 74bf 94a1 a1bf 08ae a1bf dbb2 50be
00000170: 74c7 07bf b503 16bf b0ec 8d3f 3ba7 453e
00000180: 1433 1d3b 5bd2 4abd 0e0b 0ac0 bebf 48bf
00000190: 6bff 88bf 5858 d73e 2d8f bfbf bebd adbd
000001a0: 7fe2 0d3f 4bf4 f5bd 33c1 f23f c8b2 8c3e
000001b0: 9ae6 c53f 1435 393f c2d8 91bf 9130 c4be
000001c0: 3789 56bf 3759 c73d 5cb3 a8bf 0b05 cd3e
000001d0: b999 953f 90bc b53e 7767 c3bf 6780 05bf
000001e0: bd1c a83e 53af b5be 84f1 16c0 f947 0fbf
000001f0: 2f9a 79bf 4999 c7bd 2499 c83f 7dab 883e
00000200: 7fa7 a3bd e0ae 38bf 58af 103f 9dba 67bf
00000210: 44e2 83be c430 81bf 0bc9 a4bf 8f1f 33bf
00000220: 104d c0be efb9 bdbf f860 34bd 08e0 93be
00000230: 622a a23d d7eb 203f abbb 2dbe 9022 553e
00000240: 2cbf 5f3f 7190 643f 7646 abbe 2e27 1a3e
00000250: d45d 813f 8753 b2be 0b51 9fbf 9abe 3cbf
00000260: 0250 8e3f 142e 0a3c 7c3b d2bf 5403 abbe
00000270: 6e16 013f 4f6a 6ebe 0ebd 1ec0 f781 35be
00000280: 8a2f 1dbf 3eb5 813d b811 0840 686c 163f
00000290: 5594 7a3f 0777 903f 154c 063f e73b 303f
000002a0: 0dcd 313f ffd7 a43e ce5b b73f 9503 df3e
000002b0: 0055 5f3f a042 c43e b91c c5bf 9f7c 06be
000002c0: 0f9a 3cbf 7e2a 2cbf d2f1 cebf cd0f 00be
000002d0: 40fd 11bf 34e9 153e 195b 7abf 9f1e 80bb
000002e0: 5efc 2a3f 1044 173f 61c3 96bc f062 ea3d
000002f0: 41a0 5c3f 3a9d b83e ce7b 2840 3bae 1fbd
00000300: a875 c1be 0f9e 86be 8aca 9f3f 361b 4e3f
00000310: 9938 d4bf 458e 08bf 201c f93e 9d75 483f
00000320: 99df 1c3f 105a 163e 52e9 2140 9123 363f
00000330: 90b7 96bf b280 513e 4186 1a40 9b6f e03e
00000340: f1e6 5a3f 9d87 613f 600b 1440 ce73 19be
00000350: c81a 9e3f e89d f9bd a9e0 f8bf 18bf 44be
00000360: 219c bebe ea2e 66be 45ed 15bf 1c75 e83d
00000370: 985a 61bf 3b91 f1be 9242 29c0 ca00 233c
00000380: 7200 163f 8db5 183e 7a5e 2140 fe33 e53e
00000390: 8d50 6b3f 6262 033f 5073 eb3f 6c1a 6dbe
000003a0: 1488 55bf 732b 85be 1567 0dc0 21bd 29bf
000003b0: c603 953c 8de3 55be 56ea 10c0 b3cc 04bf
000003c0: 6b16 6cbf 7405 09bf a56f 483f 5a08 b53d
000003d0: 695f 733f 7acd ed3d 3e42 f0be 4b18 91be
000003e0: 0d07 33bf fbee 00bf bfa8 29c0 5ff6 9fbd
000003f0: df9b 8abf b2fd 68bf 8c2e 433f 6bc3 273e

shared_net.0.bias f4 [64]
-0.8846118 0.43295833 0.7801583 -0.3907379 -1.1843702 -0.6026066 0.5219011 0.34194666
-0.56253934 0.69888276 0.75628865 0.9798408 0.5792434 0.7550489 0.6259047 -1.0552353
0.74015737 -0.47264814 0.6947895 0.30408996 -0.044433795 -0.7838426 -0.87390876 -0.6480288
0.19615784 -0.96362734 0.55538577 -0.6789645 -0.44261312 -0.58680695 -0.56623 -1.0381887
-0.08441469 0.6102378 0.030215379 0.89655715 0.836022 0.57249135 1.094883 -0.33601183
0.41657817 0.3262902 -0.85406387 -0.481635 0.6115644 0.86134595 0.5423363 -0.07017151
-0.5024682 0.65798235 -0.45422608 0.45089543 -0.38750726 -0.34646258 -1.5782969 0.039294932
-0.36375266 -0.28109387 -0.5214439 0.3774279 -0.92930865 0.7003141 0.05505601 0.5285505
00000000: eb75 62bf b7ac dd3e 74b8 473f cc0e c8be
00000010: 7199 97bf 6d44 1abf 4f9b 053f a213 af3e
00000020: 9402 10bf fbe9 323f 229c 413f d9d6 7a3f
00000030: 4c49 143f e24a 413f 4a3b 203f f311 87bf
00000040: f47a 3d3f f0fe f1be badd 313f aeb1 9b3e
00000050: 3600 36bd e9a9 48bf 7cb8 5fbf 37e5 25bf
00000060: 9add 483e 48b0 76bf c32d 0e3f 9ed0 2dbf
00000070: 309e e2be fb38 16bf 73f4 10bf 5ee3 84bf
00000080: 9ce1 acbd 8b38 1c3f 3e86 f73c c584 653f
00000090: 8a05 563f cb8e 123f 2025 8c3f be09 acbe
000000a0: bc49 d53e 820f a73e eea3 5abf dd98 f6be
000000b0: 7c8f 1c3f 2b81 5c3f 8dd6 0a3f 15b6 8fbd
000000c0: c2a1 00bf 8871 283f 5290 e8be c4db e63e
000000d0: 5a67 c6be 8b63 b1be a205 cabf b9f3 203d
000000e0: ca3d babe 89eb 8fbe 597d 05bf 3b3e c13e
000000f0: 2ce7 6dbf c947 333f 6982 613d 164f 073f

shared_net.2.weight f4 [64, 64]
0.113457605 -0.9381076 -0.10402574 -0.19758894 1.3546462 0.7651499 -0.51622796 -0.7221128
0.614532 -0.8440683 -0.8321522 -0.601378 -0.8403423 -1.2148073 -1.0789956 0.49309638
-0.6501307 1.0555323 -0.46332452 -0.48085597 0.33871457 0.8122725 0.57519764 0.61391425
0.36804438 0.26952344 -0.23925182 0.666383 0.07161263 0.67339104 0.78569496 0.52694327
0.33794865 0.04352685 0.35321403 -0.72293234 -0.55039555 0.32366422 -0.52808905 1.4848988
-0.8827986 -0.23673587 0.73501277 0.7992426 -0.6718769 -0.68383074 -0.30206802 0.49339953
0.27004245 -1.453359 1.0194606 -0.96815133 0.7713695 1.105681 0.5406424 -0.15885884
0.79029405 0.79532325 0.3943528 0.1208883 0.6710731 -0.4035977 0.050053872 -0.48508814
0.2218622 0.9839714 -0.79786724 -0.40320015 -0.115713924 -0.28378892 -0.90304995 1.2311326
-0.28136063 0.43294644 0.38459015 -0.17391874 0.3402439 0.4781879 0.89450836 -0.043983907
-0.35648325 -1.0008 0.37071905 -0.7968543 -0.119678564 -0.22565487 0.53302085 -0.52024454
0.57895684 0.48066387 -0.520791 -0.30933318 1.037938 -0.13928099 0.31067133 -0.7412079
-0.4359265 -0.034367505 0.09905706 -0.188259 0.18568665 -0.47782445 0.5979101 0.31810308
-0.014004558 -0.36598724 -0.26640713 0.14740951 0.51130384 0.6969839 -0.40179518 -1.8431369
-0.2820378 0.30311176 -0.49119893 -0.058944 -0.44641897 0.03281554 0.28149912 1.9316679
-0.56474984 -0.7895509 0.5093862 0.536884 -0.41410106 -0.12739278 1.9284242 0.2854913
0.1256561 0.3947659 0.7661489 0.35341308 -0.4805871 0.32389903 0.41299322 0.8251931
-0.60768914 -0.25132766 0.015772307 0.40009516 0.7201179 0.6190045 0.48813665 0.051403463
0.08392412 -0.59862787 0.50189304 0.4552431 -0.037994474 -0.3922769 -0.038412593 -0.010501958
0.56698895 -0.21163447 0.07894025 0.44745994 0.21708591 0.53749275 -0.06359629 -0.3907055
-0.44455343 -0.13753204 -0.53388613 0.50202596 -0.23922539 0.05752197 0.18739454 0.33855322
-0.15478213 0.3301295 -0.77570254 0.03484256 0.8050703 0.5012948 0.15646791 -0.20370452
-0.4440218 -0.076118805 -0.49906147 -0.14050609 -0.058136556 0.32711196 -0.41562867 0.0003723878
-0.5804165 -0.05849787 -0.3155623 0.295916 -0.1390297 0.6434521 -0.04974215 -0.4415726
-0.64438957 0.18590753 0.71401054 -0.2341322 -0.46513703 -0.45487717 0.85184395 -0.12892444
-0.073707014 0.02502645 -0.08677331 0.6210788 -0.042984556 0.39060622 -0.049012065 -0.016976453
0.3255227 -0.12383298 -0.40653697 0.8135568 0.020377282 -0.34748423 -0.15581621 0.30343682
-0.315258 -0.99052024 1.1218839 -0.25647533 -0.45579433 -0.7153041 -1.3943266 0.07578817
-0.1261667 0.2085551 0.36241665 0.38532674 0.1230611 -0.037669454 -0.061934724 -1.6203984
1.4527733 0.29642397 -0.14193897 -1.0802034 0.23981199 0.3019959 0.5253936 0.4832643
0.18412526 0.4441332 0.28106168 1.2255123 0.11398453 -0.6899478 -0.6248697 -0.3659628
0.22526097 0.034967124 -0.7221439 0.12690996 0.044760287 0.12455798 -0.4757505 0.304649
00000000: 765c e83d d227 70bf 720b d5bd c154 4abe
00000010: 0c65 ad3f dde0 433f 8427 04bf 62dc 38bf
00000020: f851 1d3f dc14 58bf ed07 55bf e9f3 19bf
00000030: ac20 57bf ce7e 9bbf 871c 8abf 2177 fc3e
00000040: f76e 26bf af1b 873f df38 edbe c132 f6be
00000050: ff6b ad3e 17f1 4f3f 2740 133f 7c29 1d3f
00000060: 5070 bc3e fafe 893e 6efe 74be 1498 2a3f
00000070: a4a9 923d 5b63 2c3f 4e23 493f c1e5 063f
00000080: 9b07 ad3e 3649 323d 78d8 b43e 1812 39bf
00000090: b9e6 0cbf 51b7 a53e d830 07bf 2a11 be3f
000000a0: 17ff 61bf e36a 72be cc29 3c3f 2a9b 4c3f
000000b0: 2000 2cbf 880f 2fbf a9a8 9abe dd9e fc3e
000000c0: 0143 8a3e ab07 babf af7d 823f c4d8 77bf
000000d0: 7978 453f f486 8d3f 8a67 0a3f e4ab 22be
000000e0: b650 4a3f 4e9a 4b3f 9ce8 c93e 4994 f73d
000000f0: 72cb 2b3f 5ca4 cebe 4a05 4d3d 795d f8be
00000100: d82f 633e 8de5 7b3f 0741 4cbf 4070 cebe
00000110: 6cfb ecbd c84c 91be 482e 67bf c195 9d3f
00000120: 800e 90be 28ab dd3e 00e9 c43e c117 32be
00000130: 7334 ae3e 0bd5 f43e 80fe 643f 7828 34bd
00000140: f984 b6be 371a 80bf e3ce bd3e a5fe 4bbf
00000150: 091a f5bd 1212 67be 0e74 083f bf2e 05bf
00000160: 8436 143f 9319 f63e 8f52 05bf eb60 9ebe
00000170: 27db 843f ad9f 0ebe 5010 9f3e cdbf 3dbf
00000180: c231 dfbe f1c4 0cbd 6ede ca3d f8c6 40be
00000190: a424 3e3e 68a5 f4be a310 193f 68de a23e
000001a0: 6073 65bc ae62 bbbe 8466 88be 85f2 163e
000001b0: cfe4 023f 896d 323f 19b8 cdbe e9eb ebbf
000001c0: 4267 90be 7731 9b3e 6d7e fbbe 446f 71bd
000001d0: 0791 e4be 9669 063d a720 903e e540 f73f
000001e0: 7293 10bf 0220 4abf 2267 023f 3b71 093f
000001f0: 0e05 d4be 4173 02be 9bd6 f63f ea2b 923e
00000200: feab 003e c21e ca3e 5622 443f 8ff2 b43e
00000210: 830f f6be 18d6 a53e d973 d33e db3f 533f
00000220: 8491 1bbf 05ae 80be ed34 813c 46d9 cc3e
00000230: a659 383f 1477 1e3f 0ced f93e 708c 523d
00000240: 69e0 ab3d ad3f 19bf 107c 003f a015 e93e
00000250: 18a0 1bbd 85d8 c8be 8656 1dbd 6810 2cbc
00000260: 3026 113f b5b6 58be 6dab a13d 7819 e53e
00000270: c54b 5e3e 2099 093f c63e 82bd 8d0a c8be
00000280: 829c e3be 33d5 0cbe c3ac 08bf c684 003f
00000290: 80f7 74be 289c 6b3d 5be4 3f3e d956 ad3e
000002a0: 357f 1ebe bc06 a93e 7194 46bf 12b7 0e3d
000002b0: 1619 4e3f db54 003f 2039 203e eb97 50be
000002c0: d356 e3be 2de4 9bbd fc84 ffbe d4e0 0fbe
000002d0: 9920 6ebd 387b a73e 48cd d4be 0b3d c339
000002e0: 2d96 14bf 769b 6fbd 6291 a1be 4d82 973e
000002f0: cd5d 0ebe 47b9 243f 6dbe 4bbd ce15 e2be
00000300: b7f6 24bf 8b5e 3e3e 65c9 363f 5ac0 6fbe
00000310: 7126 eebe a9e5 e8be 7212 5a3f c504 04be
00000320: b4f3 96bd 4504 cd3c 35b6 b1bd 05ff 1e3f
00000330: 9310 30bd 8afd c73e e0c0 48bd 3412 8bbc
00000340: e9aa a63e 259c fdbd 9d25 d0be 4245 503f
00000350: 42ee a63c 74e9 b1be 498e 1fbe 125c 9b3e
00000360: 7f69 a1be bc92 7dbf e499 8f3f bc50 83be
00000370: e05d e9be 2b1e 37bf 4b79 b2bf d436 9b3d
00000380: d831 01be 788f 553e ad8e b93e 8c49 c53e
00000390: 7507 fc3d 494b 1abd 44af 7dbd 3769 cfbf
000003a0: 7af4 b93f e2c4 973e 7358 11be 1b44 8abf
000003b0: 4691 753e 359f 9a3e 3280 063f 6b6e f73e
000003c0: 558b 3c3e 6d65 e33e 51e7 8f3e 96dd 9c3f
000003d0: b970 e93d 6ba0 30bf 76f7 1fbf 7a5f bbbe
000003e0: d0aa 663e b039 0f3d 6cde 38bf aff4 013e
000003f0: 9056 373d 4118 ff3d 9295 f3be f4fa 9b3e

shared_net.2.bias f4 [64]
-0.59796923 -0.20370704 0.44585004 0.56814486 -0.16273423 -0.420637 -0.12757237 0.014135528
0.26271895 -0.37801072 -0.24104042 0.32835448 -0.2486823 0.119149424 0.1931756 -0.37854055
0.07285079 0.17110655 0.20933455 0.0810738 -0.3212019 0.5464319 -0.5416198 0.009350185
-0.028800426 -0.0014124424 0.26281592 -0.14275716 0.16929922 -0.09833711 0.09752661 0.2255791
0.47888702 0.17524473 0.18685374 -0.5669275 -0.35395843 -0.027366025 0.112628944 0.5669191
0.32270703 0.24462914 -0.2415335 -0.37348664 0.30057445 0.083372824 0.0011302169 0.41512474
0.44639778 0.059536908 -0.027558872 -0.09034597 0.55600166 0.47807872 -0.5796015 0.14073725
-0.12944973 -0.33059096 -0.1749114 -0.11691383 -0.025749907 -0.0967588 -0.23876035 0.31799844
00000000: 8314 19bf 9498 50be 7546 e43e f171 113f
00000010: cda3 26be bc5d d7be 55a2 02be b498 673c
00000020: 1983 863e 9f8a c1be 4dd3 76be 141e a83e
00000030: 93a6 7ebe 9d04 f43d d3cf 453e 11d0 c1be
00000040: cc32 953d 8e36 2f3e cc5b 563e 050a a63d
00000050: 9374 a4be f6e2 0b3f 98a7 0abf 8531 193c
00000060: dfee ebbc b421 b9ba cf8f 863e ef2e 12be
00000070: c65c 2d3e f764 c9bd 08bc c73d 35fe 663e
00000080: ae30 f53e 5b73 333e 9656 3f3e 2922 11bf
00000090: 0a3a b5be b72e e0bc 01aa e63d 9c21 113f
000000a0: db39 a53e 1080 7a3e 8f54 77be a439 bfbe
000000b0: e5e4 993e 5fbf aa3d c923 943a 3b8b d43e
000000c0: 408e e43e f9dc 733d 25c3 e1bc 4f07 b9bd
000000d0: 2056 0e3f bcc6 f43e c460 14bf 6d1d 103e
000000e0: 788e 04be 3843 a9be f91b 33be 8570 efbd
000000f0: 78f1 d2bc 7a29 c6bd 987d 74be b1d0 a23e

actor_mean.weight f4 [1, 64]
-0.08462426 -0.0062897718 -0.02825345 -0.0006859613 -0.015819611 -0.04536392 -0.0021529435 -0.0013012345
0.0019170874 0.030368058 -0.0215438 -0.0012645257 -0.0003964247 -0.0041273916 0.006677092 -0.056740765
0.0063239126 0.011797068 -0.0018330859 0.0087239295 -0.035172023 -0.063210554 0.03479863 0.0043670824
-0.023537785 0.0011888596 -0.0040078363 -0.012757341 0.08245897 -0.00021803923 0.0031885568 0.015589527
0.058195863 0.00012838906 0.027205037 0.004805493 0.029250603 -0.011415865 0.0016059905 -0.0055829254
0.033706643 0.005327016 0.037205316 -0.032100275 0.03193428 -0.034331895 0.00312332 0.01841785
0.03571768 -0.035914563 -0.009664798 -0.0036402857 0.0015264386 0.0055205943 -0.035517897 -0.004805737
-0.0760184 -0.029991234 0.016146963 0.012115246 0.0058026114 -0.0235086 -0.0016404684 -0.006207264
00000000: 7c4f adbd 6e1a cebb c773 e7bc 15d2 33ba
00000010: 2198 81bc 85cf 39bd 6618 0dbb 2f8e aaba
00000020: c746 fb3a 6fc6 f83c a07c b0bc 71be a5ba
00000030: 39d7 cfb9 123f 87bb 82cb da3b 0169 68bd
00000040: d338 cf3b 7d48 413c 2844 f0ba d0ee 0e3c
00000050: 8a10 10bd 8974 81bd 0289 0e3d be19 8f3b
00000060: 50d2 c0bc 82d3 9b3a 2b54 83bb 2b04 51bc
00000070: 40e0 a83d 76a1 64b9 1bf7 503b 376b 7f3c
00000080: c95e 6e3d 2da0 0639 19dd de3c 6677 9d3b
00000090: f69e ef3c 9c09 3bbc 1980 d23a f9f0 b6bb
000000a0: fa0f 0a3d 408e ae3b 9a64 183d 947b 03bd
000000b0: 85cd 023d 9a9f 0cbd 9db0 4c3b 08e1 963c
000000c0: b44c 123d 261b 13bd 1a59 1ebc dc91 6ebb
000000d0: c812 c83a 1ae6 b43b 377b 11bd 7279 9dbb
000000e0: 89af 9bbd 2db0 f5bc a346 843c 067f 463c
000000f0: d523 be3b 1c95 c0bc fc04 d7ba 4e66 cbbb

critic.weight f4 [1, 64]
-2.3843641 2.378486 -2.2845697 -2.4074233 2.0022862 -1.912665 -2.1576035 -2.6895235
2.6329 2.0504014 3.9005718 1.4256325 1.9539454 -2.7107103 2.5410008 2.683983
-2.435306 -2.121974 2.3956165 -2.221925 2.2997367 -3.0580223 -1.1982752 -1.8623676
1.847515 -2.5919127 -3.5095625 -2.6759765 -3.8529265 2.6161704 3.43112 3.7980835
1.9824632 4.146085 1.7683451 2.6533823 -1.2319804 -2.8977003 -3.360877 -2.6008325
2.2260368 -2.4427748 -2.153789 2.0743709 1.5772533 -2.3382163 -2.5837429 1.9222869
1.5680709 -2.5328205 3.3477378 3.3850636 -2.429701 -3.633071 2.8183508 -2.9344144
2.5345778 1.8258111 -1.7381543 3.2875633 -2.0747492 -1.3949656 -3.013578 -2.1313481
00000000: 6c99 18c0 1d39 1840 6436 12c0 3913 1ac0
00000010: 7525 0040 35d2 f4bf 2d16 0ac0 2721 2cc0
00000020: 6f81 2840 c739 0340 f8a2 7940 207b b63f
00000030: e21a fa3f 477c 2dc0 c29f 2240 61c6 2b40
00000040: 0edc 1bc0 6cce 07c0 c851 1940 0534 0ec0
00000050: e32e 1340 a3b6 43c0 1561 99bf 1062 eebf
00000060: 5f7b ec3f e6e1 25c0 ac9c 60c0 3343 2bc0
00000070: 5996 76c0 566f 2740 7897 5b40 cd13 7340
00000080: 5bc1 fd3f baac 8440 2259 e23f 04d1 2940
00000090: 89b1 9dbf ec73 39c0 9c18 57c0 0a74 26c0
000000a0: 6377 0e40 6c56 1cc0 aed7 09c0 7ec2 0440
000000b0: 70e3 c93f 56a5 15c0 0b5c 25c0 7f0d f63f
000000c0: 8cb6 c83f bb19 22c0 5641 5640 e2a4 5840
000000d0: 3980 1bc0 3c84 68c0 dc5f 3440 72cd 3bc0
000000e0: 8636 2240 2eb4 e93f d77b debf 7067 5240
000000f0: b1c8 04c0 3c8e b2bf 76de 40c0 0268 08c0
